…
Precomputing Positional Encoding statistics: ['RRWP'] for all graphs...
  ...estimated to be undirected: True
Done! Took 01:13:11.50
Augmenting edges
Preprocessing PE
[*] Run ID 0: seed=0, split_index=0
    Starting now: 2024-08-11 04:33:51.184077
LatentDiffusion: Running in x0-prediction mode
DiffusionWrapper has 5.94 M params.
Restored from results/moses-unconditional_generation_encoder_structure_recon_dim_16-rebuttal/0/ckpt/39.ckpt with 0 missing and 0 unexpected keys
Using first stage also as cond stage.
LatentDiffusion(
  (model): DiffusionWrapper(
    (diffusion_model): DenoisingTransformer(
      (act): ReLU()
      (node_in_mlp): Sequential(
        (0): Linear(in_features=16, out_features=320, bias=True)
        (1): ReLU()
        (2): Linear(in_features=320, out_features=160, bias=True)
      )
      (edge_in_mlp): Sequential(
        (0): Linear(in_features=16, out_features=320, bias=True)
        (1): ReLU()
        (2): Linear(in_features=320, out_features=160, bias=True)
      )
      (cond_in_mlp): Sequential(
        (0): Linear(in_features=20, out_features=320, bias=True)
        (1): ReLU()
        (2): Linear(in_features=320, out_features=160, bias=True)
        (3): LayerNorm((160,), eps=1e-05, elementwise_affine=True)
        (4): ReLU()
      )
      (cond_in_mlp_2): Sequential(
        (0): Linear(in_features=20, out_features=320, bias=True)
        (1): ReLU()
        (2): Linear(in_features=320, out_features=160, bias=True)
        (3): LayerNorm((160,), eps=1e-05, elementwise_affine=True)
        (4): ReLU()
      )
      (cond_in_mlp_3): Sequential(
        (0): Linear(in_features=20, out_features=320, bias=True)
        (1): ReLU()
        (2): Linear(in_features=320, out_features=160, bias=True)
        (3): LayerNorm((160,), eps=1e-05, elementwise_affine=True)
        (4): ReLU()
      )
      (cond_res_mlp): Sequential(
        (0): Linear(in_features=20, out_features=32, bias=True)
        (1): ReLU()
        (2): Linear(in_features=32, out_features=16, bias=True)
        (3): LayerNorm((16,), eps=1e-05, elementwise_affine=True)
        (4): ReLU()
      )
      (batch_norm_in_h): BatchNorm1d(160, eps=1e-05, momentum=0.1, affine=True, track_running_stats=True)
      (batch_norm_in_e): BatchNorm1d(160, eps=1e-05, momentum=0.1, affine=True, track_running_stats=True)
      (temb_layer): Sequential(
        (0): Linear(in_features=128, out_features=256, bias=True)
        (1): ReLU()
        (2): Linear(in_features=256, out_features=128, bias=True)
      )
      (denoising_layers): ModuleList(
        (0-4): 5 x DenoisingTransformerLayer(in_channels=160, out_channels=160, heads=8, residual=True)
        [DenoisingTransformerLayer(
          (act): ReLU()
          (cross_attention): Cross_Attention(
            (dropout): Dropout(p=0.1, inplace=False)
            (Q): Linear(in_features=160, out_features=160, bias=True)
            (K): Linear(in_features=160, out_features=160, bias=False)
            (E1): Linear(in_features=160, out_features=160, bias=True)
            (E2): Linear(in_features=160, out_features=160, bias=True)
            (V): Linear(in_features=160, out_features=160, bias=False)
            (H): Linear(in_features=160, out_features=160, bias=True)
            (G1): Linear(in_features=160, out_features=160, bias=True)
            (G2): Linear(in_features=160, out_features=160, bias=True)
            (act): ReLU()
          )
          (attention): GTE_Attention(
            (dropout): Dropout(p=0.1, inplace=False)
            (Q): Linear(in_features=160, out_features=160, bias=True)
            (K): Linear(in_features=160, out_features=160, bias=False)
            (E): Linear(in_features=160, out_features=320, bias=True)
            (V): Linear(in_features=160, out_features=160, bias=False)
            (act): ReLU()
          )
          (temb_proj_h): Linear(in_features=128, out_features=160, bias=True)
          (temb_proj_e): Linear(in_features=128, out_features=160, bias=True)
          (O_h): Linear(in_features=160, out_features=160, bias=True)
          (O_e): Linear(in_features=160, out_features=160, bias=True)
          (O_h2): Linear(in_features=160, out_features=160, bias=True)
          (O_e2): Linear(in_features=160, out_features=160, bias=True)
          (FFN_h_layer1): Linear(in_features=160, out_features=320, bias=True)
          (FFN_h_layer2): Linear(in_features=320, out_features=160, bias=True)
          (FFN_h_layer3): Linear(in_features=160, out_features=320, bias=True)
          (FFN_h_layer4): Linear(in_features=320, out_features=160, bias=True)
          (batch_norm1_h): BatchNorm1d(160, eps=1e-05, momentum=0.1, affine=True, track_running_stats=True)
          (batch_norm1_e): BatchNorm1d(160, eps=1e-05, momentum=0.1, affine=True, track_running_stats=True)
          (batch_norm2_h): BatchNorm1d(160, eps=1e-05, momentum=0.1, affine=True, track_running_stats=True)
          (batch_norm2_e): BatchNorm1d(160, eps=1e-05, momentum=0.1, affine=True, track_running_stats=True)
          (batch_norm3_h): BatchNorm1d(160, eps=1e-05, momentum=0.1, affine=True, track_running_stats=True)
          (batch_norm3_e): BatchNorm1d(160, eps=1e-05, momentum=0.1, affine=True, track_running_stats=True)
          (batch_norm4_h): BatchNorm1d(160, eps=1e-05, momentum=0.1, affine=True, track_running_stats=True)
          (batch_norm4_e): BatchNorm1d(160, eps=1e-05, momentum=0.1, affine=True, track_running_stats=True)
        )]
      )
      (self_attn_layers): ModuleList(
        (0-4): 5 x GraphTransformerEncoderLayer(in_channels=160, out_channels=160, heads=8, residual=True)
        [GraphTransformerEncoderLayer(
          (act): ReLU()
          (attention): GTE_Attention(
            (dropout): Dropout(p=0.1, inplace=False)
            (Q): Linear(in_features=160, out_features=160, bias=True)
            (K): Linear(in_features=160, out_features=160, bias=False)
            (E): Linear(in_features=160, out_features=320, bias=True)
            (V): Linear(in_features=160, out_features=160, bias=False)
            (act): ReLU()
          )
          (temb_proj_h): Linear(in_features=128, out_features=160, bias=True)
          (temb_proj_e): Linear(in_features=128, out_features=160, bias=True)
          (O_h): Linear(in_features=160, out_features=160, bias=True)
          (O_e): Linear(in_features=160, out_features=160, bias=True)
          (batch_norm1_h): BatchNorm1d(160, eps=1e-05, momentum=0.1, affine=True, track_running_stats=True)
          (batch_norm1_e): BatchNorm1d(160, eps=1e-05, momentum=0.1, affine=True, track_running_stats=True)
          (FFN_h_layer1): Linear(in_features=160, out_features=320, bias=True)
          (FFN_h_layer2): Linear(in_features=320, out_features=160, bias=True)
          (FFN_e_layer1): Linear(in_features=160, out_features=320, bias=True)
          (FFN_e_layer2): Linear(in_features=320, out_features=160, bias=True)
          (batch_norm2_h): BatchNorm1d(160, eps=1e-05, momentum=0.1, affine=True, track_running_stats=True)
          (batch_norm2_e): BatchNorm1d(160, eps=1e-05, momentum=0.1, affine=True, track_running_stats=True)
        )]
      )
      (final_layer_node): Sequential(
        (0): Linear(in_features=160, out_features=32, bias=True)
        (1): ReLU()
        (2): Linear(in_features=32, out_features=16, bias=True)
      )
      (final_layer_edge): Sequential(
        (0): Linear(in_features=160, out_features=32, bias=True)
        (1): ReLU()
        (2): Linear(in_features=32, out_features=16, bias=True)
      )
      (final_norm_node_1): LayerNorm((16,), eps=1e-05, elementwise_affine=True)
      (final_norm_edge_1): LayerNorm((16,), eps=1e-05, elementwise_affine=True)
      (graph_out_mlp): Identity()
      (final_norm_node_2): LayerNorm((16,), eps=1e-05, elementwise_affine=True)
      (graph_out_mlp_2): Identity()
      (final_norm_edge_2): LayerNorm((16,), eps=1e-05, elementwise_affine=True)
    )
  )
  (first_stage_model): GraphTransformerStructureEncoder(
    (act): ReLU()
    (node_emb): TypeDictNodeEncoder(
      (encoder): Embedding(8, 48, padding_idx=0)
    )
    (edge_emb): TypeDictEdgeEncoder(
      (encoder): Embedding(5, 48, padding_idx=0)
    )
    (prefix_emb): Embedding(1, 96, padding_idx=0)
    (label_embed_regression): Sequential(
      (0): Linear(in_features=1, out_features=192, bias=True)
      (1): ReLU()
      (2): Linear(in_features=192, out_features=96, bias=True)
      (3): Identity()
      (4): ReLU()
    )
    (label_embed_classification): Embedding(3, 96)
    (posenc_emb): Sequential(
      (0): Identity()
      (1): Linear(in_features=20, out_features=48, bias=True)
    )
    (posenc_emb_edge): Sequential(
      (0): Identity()
      (1): Linear(in_features=20, out_features=48, bias=True)
    )
    (node_in_mlp): Sequential(
      (0): Linear(in_features=96, out_features=192, bias=True)
      (1): ReLU()
      (2): Linear(in_features=192, out_features=96, bias=True)
    )
    (edge_in_mlp): Sequential(
      (0): Linear(in_features=96, out_features=192, bias=True)
      (1): ReLU()
      (2): Linear(in_features=192, out_features=96, bias=True)
    )
    (batch_norm_in_h): BatchNorm1d(96, eps=1e-05, momentum=0.1, affine=True, track_running_stats=True)
    (batch_norm_in_e): BatchNorm1d(96, eps=1e-05, momentum=0.1, affine=True, track_running_stats=True)
    (GTE_layers): ModuleList(
      (0-7): 8 x GraphTransformerEncoderLayer(in_channels=96, out_channels=96, heads=4, residual=True)
      [GraphTransformerEncoderLayer(
        (act): ReLU()
        (attention): GTE_Attention(
          (dropout): Dropout(p=0.5, inplace=False)
          (Q): Linear(in_features=96, out_features=96, bias=True)
          (K): Linear(in_features=96, out_features=96, bias=False)
          (E): Linear(in_features=96, out_features=192, bias=True)
          (V): Linear(in_features=96, out_features=96, bias=False)
          (act): ReLU()
        )
        (mpnn): GINE(
          (dropout): Dropout(p=0.2, inplace=False)
          (act): ReLU()
          (lin_edge): Linear(in_features=96, out_features=96, bias=True)
          (mlp): Sequential(
            (0): Linear(in_features=96, out_features=192, bias=True)
            (1): ReLU()
            (2): Linear(in_features=192, out_features=96, bias=True)
          )
        )
        (temb_proj_h): Linear(in_features=0, out_features=96, bias=True)
        (temb_proj_e): Linear(in_features=0, out_features=96, bias=True)
        (O_h): Linear(in_features=96, out_features=96, bias=True)
        (O_e): Linear(in_features=96, out_features=96, bias=True)
        (batch_norm1_h): BatchNorm1d(96, eps=1e-05, momentum=0.1, affine=True, track_running_stats=True)
        (batch_norm1_e): BatchNorm1d(96, eps=1e-05, momentum=0.1, affine=True, track_running_stats=True)
        (FFN_h_layer1): Linear(in_features=96, out_features=192, bias=True)
        (FFN_h_layer2): Linear(in_features=192, out_features=96, bias=True)
        (FFN_e_layer1): Linear(in_features=96, out_features=192, bias=True)
        (FFN_e_layer2): Linear(in_features=192, out_features=96, bias=True)
        (batch_norm2_h): BatchNorm1d(96, eps=1e-05, momentum=0.1, affine=True, track_running_stats=True)
        (batch_norm2_e): BatchNorm1d(96, eps=1e-05, momentum=0.1, affine=True, track_running_stats=True)
      )]
    )
    (final_layer_node): Sequential(
      (0): Linear(in_features=96, out_features=32, bias=True)
      (1): ReLU()
      (2): Linear(in_features=32, out_features=16, bias=True)
    )
    (final_layer_edge): Sequential(
      (0): Linear(in_features=96, out_features=32, bias=True)
      (1): ReLU()
      (2): Linear(in_features=32, out_features=16, bias=True)
    )
    (final_norm_node_1): LayerNorm((16,), eps=1e-05, elementwise_affine=True)
    (final_norm_edge_1): LayerNorm((16,), eps=1e-05, elementwise_affine=True)
    (graph_out_mlp): Identity()
    (final_norm_node_2): LayerNorm((16,), eps=1e-05, elementwise_affine=True)
    (graph_out_mlp_2): Identity()
    (final_norm_edge_2): LayerNorm((16,), eps=1e-05, elementwise_affine=True)
    (decode_node): Linear(in_features=16, out_features=8, bias=True)
    (decode_edge): Linear(in_features=16, out_features=5, bias=True)
    (decode_graph): Linear(in_features=16, out_features=1, bias=True)
    (decode_node_from_edge): Linear(in_features=16, out_features=8, bias=True)
    (decode_edge_from_node): Linear(in_features=16, out_features=5, bias=True)
  )
  (cond_stage_model): GraphTransformerStructureEncoder(
    (act): ReLU()
    (node_emb): TypeDictNodeEncoder(
      (encoder): Embedding(8, 48, padding_idx=0)
    )
    (edge_emb): TypeDictEdgeEncoder(
      (encoder): Embedding(5, 48, padding_idx=0)
    )
    (prefix_emb): Embedding(1, 96, padding_idx=0)
    (label_embed_regression): Sequential(
      (0): Linear(in_features=1, out_features=192, bias=True)
      (1): ReLU()
      (2): Linear(in_features=192, out_features=96, bias=True)
      (3): Identity()
      (4): ReLU()
    )
    (label_embed_classification): Embedding(3, 96)
    (posenc_emb): Sequential(
      (0): Identity()
      (1): Linear(in_features=20, out_features=48, bias=True)
    )
    (posenc_emb_edge): Sequential(
      (0): Identity()
      (1): Linear(in_features=20, out_features=48, bias=True)
    )
    (node_in_mlp): Sequential(
      (0): Linear(in_features=96, out_features=192, bias=True)
      (1): ReLU()
      (2): Linear(in_features=192, out_features=96, bias=True)
    )
    (edge_in_mlp): Sequential(
      (0): Linear(in_features=96, out_features=192, bias=True)
      (1): ReLU()
      (2): Linear(in_features=192, out_features=96, bias=True)
    )
    (batch_norm_in_h): BatchNorm1d(96, eps=1e-05, momentum=0.1, affine=True, track_running_stats=True)
    (batch_norm_in_e): BatchNorm1d(96, eps=1e-05, momentum=0.1, affine=True, track_running_stats=True)
    (GTE_layers): ModuleList(
      (0-7): 8 x GraphTransformerEncoderLayer(in_channels=96, out_channels=96, heads=4, residual=True)
      [GraphTransformerEncoderLayer(
        (act): ReLU()
        (attention): GTE_Attention(
          (dropout): Dropout(p=0.5, inplace=False)
          (Q): Linear(in_features=96, out_features=96, bias=True)
          (K): Linear(in_features=96, out_features=96, bias=False)
          (E): Linear(in_features=96, out_features=192, bias=True)
          (V): Linear(in_features=96, out_features=96, bias=False)
          (act): ReLU()
        )
        (mpnn): GINE(
          (dropout): Dropout(p=0.2, inplace=False)
          (act): ReLU()
          (lin_edge): Linear(in_features=96, out_features=96, bias=True)
          (mlp): Sequential(
            (0): Linear(in_features=96, out_features=192, bias=True)
            (1): ReLU()
            (2): Linear(in_features=192, out_features=96, bias=True)
          )
        )
        (temb_proj_h): Linear(in_features=0, out_features=96, bias=True)
        (temb_proj_e): Linear(in_features=0, out_features=96, bias=True)
        (O_h): Linear(in_features=96, out_features=96, bias=True)
        (O_e): Linear(in_features=96, out_features=96, bias=True)
        (batch_norm1_h): BatchNorm1d(96, eps=1e-05, momentum=0.1, affine=True, track_running_stats=True)
        (batch_norm1_e): BatchNorm1d(96, eps=1e-05, momentum=0.1, affine=True, track_running_stats=True)
        (FFN_h_layer1): Linear(in_features=96, out_features=192, bias=True)
        (FFN_h_layer2): Linear(in_features=192, out_features=96, bias=True)
        (FFN_e_layer1): Linear(in_features=96, out_features=192, bias=True)
        (FFN_e_layer2): Linear(in_features=192, out_features=96, bias=True)
        (batch_norm2_h): BatchNorm1d(96, eps=1e-05, momentum=0.1, affine=True, track_running_stats=True)
        (batch_norm2_e): BatchNorm1d(96, eps=1e-05, momentum=0.1, affine=True, track_running_stats=True)
      )]
    )
    (final_layer_node): Sequential(
      (0): Linear(in_features=96, out_features=32, bias=True)
      (1): ReLU()
      (2): Linear(in_features=32, out_features=16, bias=True)
    )
    (final_layer_edge): Sequential(
      (0): Linear(in_features=96, out_features=32, bias=True)
      (1): ReLU()
      (2): Linear(in_features=32, out_features=16, bias=True)
    )
    (final_norm_node_1): LayerNorm((16,), eps=1e-05, elementwise_affine=True)
    (final_norm_edge_1): LayerNorm((16,), eps=1e-05, elementwise_affine=True)
    (graph_out_mlp): Identity()
    (final_norm_node_2): LayerNorm((16,), eps=1e-05, elementwise_affine=True)
    (graph_out_mlp_2): Identity()
    (final_norm_edge_2): LayerNorm((16,), eps=1e-05, elementwise_affine=True)
    (decode_node): Linear(in_features=16, out_features=8, bias=True)
    (decode_edge): Linear(in_features=16, out_features=5, bias=True)
    (decode_graph): Linear(in_features=16, out_features=1, bias=True)
    (decode_node_from_edge): Linear(in_features=16, out_features=8, bias=True)
    (decode_edge_from_node): Linear(in_features=16, out_features=5, bias=True)
  )
)
accelerator: cuda:0
benchmark: False
bn:
  eps: 1e-05
  mom: 0.1
cfg_dest: config.yaml
cond:
  attn:
    O_e: True
    act: relu
    attn_dropout: 0.0
    batch_norm: True
    bn_momentum: 0.1
    bn_no_runner: False
    clamp: 5.0
    deg_scaler: False
    edge_enhance: True
    full_attn: True
    layer_norm: False
    norm_e: True
    sparse: False
…
